…
        "outputId": "4b28c6f3-5d05-4799-c079-17f5e4d6831d"
      },
      "source": [
        "# summary of the model\n",
        "print(model.summary())"
      ],
      "execution_count": 9,
      "outputs": [
        {
          "output_type": "stream",
          "text": [
            "Model: \"sequential\"\n",
            "_________________________________________________________________\n",
            "Layer (type)                 Output Shape              Param #   \n",
            "=================================================================\n",
            "conv2d (Conv2D)              (None, 32, 32, 32)        896       \n",
            "_________________________________________________________________\n",
            "activation (Activation)      (None, 32, 32, 32)        0         \n",
            "_________________________________________________________________\n",
            "batch_normalization (BatchNo (None, 32, 32, 32)        128       \n",
            "_________________________________________________________________\n",
            "conv2d_1 (Conv2D)            (None, 30, 30, 32)        9248      \n",
            "_________________________________________________________________\n",
            "activation_1 (Activation)    (None, 30, 30, 32)        0         \n",
            "_________________________________________________________________\n",
            "batch_normalization_1 (Batch (None, 30, 30, 32)        128       \n",
            "_________________________________________________________________\n",
            "max_pooling2d (MaxPooling2D) (None, 15, 15, 32)        0         \n",
            "_________________________________________________________________\n",
            "conv2d_2 (Conv2D)            (None, 15, 15, 64)        18496     \n",
            "_________________________________________________________________\n",
            "activation_2 (Activation)    (None, 15, 15, 64)        0         \n",
            "_________________________________________________________________\n",
            "batch_normalization_2 (Batch (None, 15, 15, 64)        256       \n",
            "_________________________________________________________________\n",
            "conv2d_3 (Conv2D)            (None, 13, 13, 64)        36928     \n",
            "_________________________________________________________________\n",
            "activation_3 (Activation)    (None, 13, 13, 64)        0         \n",
            "_________________________________________________________________\n",
            "batch_normalization_3 (Batch (None, 13, 13, 64)        256       \n",
            "_________________________________________________________________\n",
            "max_pooling2d_1 (MaxPooling2 (None, 6, 6, 64)          0         \n",
            "_________________________________________________________________\n",
            "flatten (Flatten)            (None, 2304)              0         \n",
            "_________________________________________________________________\n",
            "dense (Dense)                (None, 512)               1180160   \n",
            "_________________________________________________________________\n",
            "activation_4 (Activation)    (None, 512)               0         \n",
            "_________________________________________________________________\n",
            "dropout (Dropout)            (None, 512)               0         \n",
            "_________________________________________________________________\n",
            "dense_1 (Dense)              (None, 10)                5130      \n",
            "_________________________________________________________________\n",
            "activation_5 (Activation)    (None, 10)                0         \n",
            "=================================================================\n",
            "Total params: 1,251,626\n",
            "Trainable params: 1,251,242\n",
            "Non-trainable params: 384\n",
            "_________________________________________________________________\n",
            "None\n"
          ],
          "name": "stdout"
        }
      ]
    },
    {
…
